traced_model.pt (torch, 2674 bytes, 1 tensors)

weight f4 [10, 20]
0.3717249 0.6558523 0.19157541 0.9803084 0.799102 0.50915086 0.27038157 0.015553832
0.59350806 0.65219915 0.9889528 0.4031127 0.4195642 0.71483207 0.49796873 0.049209416
0.94306886 0.41050744 0.3630036 0.82367426 0.31872857 0.13735014 0.6121619 0.09238088
0.17845708 0.28490412 0.25201023 0.0025809407 0.7130596 0.16895616 0.98904794 0.97190666
0.112751484 0.8084503 0.9523381 0.6571975 0.96497405 0.3084694 0.28778005 0.6892148
0.17314684 0.49976468 0.33780295 0.53655064 0.06300157 0.39434057 0.04460001 0.08190048
0.8065135 0.12815541 0.7266489 0.7279036 0.6193772 0.27664304 0.84578055 0.4853505
0.73387516 0.4815759 0.27807403 0.41696572 0.8224825 0.51720035 0.9611977 0.77603525
0.55309516 0.35647154 0.2661193 0.9728923 0.13062066 0.3685035 0.7362145 0.24461985
0.06740564 0.18443221 0.021468997 0.68590087 0.01527518 0.60077876 0.7711252 0.84676117
0.7417296 0.22333497 0.54999036 0.06727344 0.45347887 0.5276592 0.7382491 0.86815447
0.57573104 0.57283896 0.70504797 0.44690186 0.89435244 0.10717368 0.5023591 0.42394233
0.41571444 0.74741 0.18229741 0.90683454 0.29965055 0.6334812 0.23186803 0.4126296
0.8543965 0.37987453 0.41645765 0.7385399 0.74675703 0.9019889 0.36181724 0.31843156
0.7964784 0.8018461 0.43799812 0.6875497 0.20623308 0.30076414 0.5569996 0.43594074
0.4730044 0.24713957 0.26454645 0.12634557 0.9744628 0.8948657 0.83135647 0.9241039
0.051056385 0.17088169 0.22091663 0.5696066 0.8477406 0.52503556 0.32071692 0.78493255
0.61957246 0.8068298 0.37887168 0.6796898 0.3158077 0.82287794 0.5165335 0.45242393
0.5558482 0.1902036 0.86153126 0.7943101 0.50995064 0.15528697 0.016105294 0.56139576
0.7194513 0.16712606 0.7990141 0.102163196 0.4771343 0.72064114 0.07538104 0.83791226
0.13370991 0.5825051 0.23615795 0.11744845 0.5200565 0.99270254 0.3926921 0.38072234
0.9445933 0.31887448 0.6777167 0.943758 0.9390004 0.47666782 0.45049024 0.8470921
0.1312744 0.06543183 0.17008257 0.5168998 0.2476331 0.86018646 0.34597945 0.9536906
0.6037319 0.38827384 0.88316065 0.45784348 0.23302996 0.3395807 0.78366286 0.7256014
0.08110136 0.26281083 0.29651874 0.56678957 0.66431534 0.4293667 0.21277505 0.16995049
00000000: ba52 be3e f0e5 273f 582c 443e 7ef5 7a3f
00000010: f391 4c3f b657 023f 746f 8a3e 80d5 7e3c
00000020: 25f0 173f 86f6 263f 032c 7d3f ca64 ce3e
00000030: 1ed1 d63e 3cff 363f c2f5 fe3e d08f 493d
00000040: f66c 713f 082e d23e 9cdb b93e 51dc 523f
00000050: 6430 a33e 84a5 0c3e a4b6 1c3f 3032 bd3d
00000060: 74bd 363e f4de 913e 7c07 813e 0025 293b
00000070: 138b 363f d802 2d3e 3f32 7d3f e0ce 783f
00000080: 40ea e63d 99f6 4e3f 6ecc 733f 183e 283f
00000090: 8a08 773f b4ef 9d3e e857 933e 6270 303f
000000a0: 684d 313e 28e1 ff3e 82f4 ac3e 625b 093f
000000b0: f806 813d 02e7 c93e 80ae 363d 70bb a73d
000000c0: ab77 4e3f 2c3b 033e aa05 3a3f e457 3a3f
000000d0: 818f 1e3f 28a4 8d3e 1385 583f dc7f f83e
000000e0: 3edf 3b3f 1e91 f63e b85f 8e3e 887c d53e
000000f0: 378e 523f 3e67 043f 0d11 763f 3faa 463f
00000100: a597 0d3f 7083 b63e ca40 883e 780f 793f
00000110: 6cc1 053e 7eac bc3e 8e78 3c3f a07d 7a3e
00000120: f80b 8a3d ccdb 3c3e c0df af3c 3397 2f3f
00000130: c044 7a3c a3cc 193f 7668 453f 57c5 583f
00000140: fee1 3d3f ecb1 643e 2bcc 0c3f a8c6 893d
00000150: 622e e83e ac14 073f e5fd 3c3f 5f3f 5e3f
00000160: 1c63 133f 93a5 123f 067e 343f 52d0 e43e
00000170: 48f4 643f e07d db3d 9b9a 003f f80e d93e
00000180: 86d8 d43e 4356 3f3f 2cac 3a3e 4f26 683f
00000190: cc6b 993e d32b 223f d06e 6d3e 3044 d33e
000001a0: bbb9 5a3f ea7e c23e f039 d53e f310 3d3f
000001b0: 782b 3f3f bfe8 663f 1c40 b93e 7609 a33e
000001c0: 02e6 4b3f c945 4d3f 4a41 e03e 4203 303f
000001d0: c42e 533e c2fd 993e 8797 0e3f a033 df3e
000001e0: a22d f23e 2812 7d3e a272 873e bc60 013e
000001f0: 6576 793f eb15 653f c7d3 543f 1392 6c3f
00000200: 8020 513d 9cfb 2e3e f837 623e bdd1 113f
00000210: 8705 593f bb68 063f 0235 a43e 57f1 483f
00000220: 4d9c 1e3f 668c 4e3f 78fb c13e 2700 2e3f
00000230: 8cb1 a13e 21a8 523f 8a3b 043f 1ca4 e73e
00000240: 114c 0e3f bcc4 423e 508d 5c3f e857 4b3f
00000250: 208c 023f 8c03 1f3e 40ef 833c a2b7 0f3f
00000260: f62d 383f 1823 2b3e 308c 4c3f f03a d13d
00000270: f24a f43e f07b 383f 6061 9a3d 6b81 563f
00000280: 40eb 083e 0e1f 153f 64d3 713e d088 f03d
00000290: 6c22 053f c121 7e3f f00e c93e 0aee c23e
000002a0: ded0 713f 8443 a33e d77e 2d3f 209a 713f
000002b0: 5562 703f ce0d f43e a8a6 e63e 07db 583f
000002c0: cc6c 063e 2001 863d 202a 2e3e 8c53 043f
000002d0: 8893 7d3e 2e35 5c3f 3824 b13e 1125 743f
000002e0: 2c8e 1a3f d4cb c63e d116 623f 766a ea3e
000002f0: 689f 6e3e 86dd ad3e 219e 483f 03c1 393f
00000300: 7818 a63d 248f 863e 4ed1 973e 1f19 113f
00000310: 9210 2a3f f4d5 db3e b4e1 593e 8007 2e3e
